[21:35:02.503772] Number of Samples: 68542
[21:35:03.233406] Locking 9 unimodal modules (Embeddings + Layers 0 to 7).
[21:35:03.234453] Unimodal layers 8 to 11 remain trainable.
[21:35:03.292123] SFT finetune from ckpt/SLIP_gemma270.pth
[21:35:04.093182] <All keys matched successfully>
[21:35:05.238735] Model = SLIP(
  (sensor_encoder): SensorTransformerModel(
    (patch_embed): MultiSizePatchEmbed(
      (shared_linear): Linear(in_features=96, out_features=3072, bias=True)
      (shared_residual): Linear(in_features=96, out_features=768, bias=True)
      (dropout): Dropout(p=0.1, inplace=False)
      (act): SiLUActivation()
      (output_layer): Linear(in_features=3072, out_features=768, bias=True)
    )
    (blocks): ModuleList(
      (0-11): 12 x SensorEncoderLayer(
        (ts_attn): AllAttention(
          (self_attention): TsRoPEAttention(
            (q_proj): Linear(in_features=768, out_features=768, bias=True)
            (k_proj): Linear(in_features=768, out_features=768, bias=True)
            (v_proj): Linear(in_features=768, out_features=768, bias=True)
            (o_proj): Linear(in_features=768, out_features=768, bias=False)
            (rotary_emb): RotaryEmbedding()
          )
          (layer_norm): LayerNorm((768,), eps=1e-05, elementwise_affine=True)
          (dropout): Dropout(p=0.1, inplace=False)
        )
        (norm): LayerNorm((768,), eps=1e-05, elementwise_affine=True)
        (ffn_layer): MLP(
          (gate_proj): Linear(in_features=768, out_features=3072, bias=False)
          (up_proj): Linear(in_features=768, out_features=3072, bias=False)
          (down_proj): Linear(in_features=3072, out_features=768, bias=False)
          (act_fn): SiLUActivation()
        )
      )
    )
    (norm): LayerNorm((768,), eps=1e-05, elementwise_affine=True)
  )
  (multimodalModel): Gemma3MultimodalModel(
    (model): Gemma3ForCausalLM(
      (model): Gemma3TextModel(
        (embed_tokens): Gemma3TextScaledWordEmbedding(262144, 640, padding_idx=0)
        (layers): ModuleList(
          (0-11): 12 x Gemma3DecoderLayer(
            (self_attn): Gemma3Attention(
              (q_proj): Linear(in_features=640, out_features=1024, bias=False)
              (k_proj): Linear(in_features=640, out_features=256, bias=False)
              (v_proj): Linear(in_features=640, out_features=256, bias=False)
              (o_proj): Linear(in_features=1024, out_features=640, bias=False)
              (q_norm): Gemma3RMSNorm((256,), eps=1e-06)
              (k_norm): Gemma3RMSNorm((256,), eps=1e-06)
            )
            (mlp): Gemma3MLP(
              (gate_proj): Linear(in_features=640, out_features=2048, bias=False)
              (up_proj): Linear(in_features=640, out_features=2048, bias=False)
              (down_proj): Linear(in_features=2048, out_features=640, bias=False)
              (act_fn): GELUTanh()
            )
            (input_layernorm): Gemma3RMSNorm((640,), eps=1e-06)
            (post_attention_layernorm): Gemma3RMSNorm((640,), eps=1e-06)
            (pre_feedforward_layernorm): Gemma3RMSNorm((640,), eps=1e-06)
            (post_feedforward_layernorm): Gemma3RMSNorm((640,), eps=1e-06)
          )
          (12-17): 6 x Gemma3MultimodalLayer(
            (original_layer): Gemma3DecoderLayer(
              (self_attn): Gemma3Attention(
                (q_proj): Linear(in_features=640, out_features=1024, bias=False)
                (k_proj): Linear(in_features=640, out_features=256, bias=False)
                (v_proj): Linear(in_features=640, out_features=256, bias=False)
                (o_proj): Linear(in_features=1024, out_features=640, bias=False)
                (q_norm): Gemma3RMSNorm((256,), eps=1e-06)
                (k_norm): Gemma3RMSNorm((256,), eps=1e-06)
              )
              (mlp): Gemma3MLP(
                (gate_proj): Linear(in_features=640, out_features=2048, bias=False)
                (up_proj): Linear(in_features=640, out_features=2048, bias=False)
                (down_proj): Linear(in_features=2048, out_features=640, bias=False)
                (act_fn): GELUTanh()
              )
              (input_layernorm): Gemma3RMSNorm((640,), eps=1e-06)
              (post_attention_layernorm): Gemma3RMSNorm((640,), eps=1e-06)
              (pre_feedforward_layernorm): Gemma3RMSNorm((640,), eps=1e-06)
              (post_feedforward_layernorm): Gemma3RMSNorm((640,), eps=1e-06)
            )
            (cross_attn_block): Residual(
              (fn): CrossAttention(
                (norm): LayerNorm((640,), eps=1e-05, elementwise_affine=True)
                (context_norm): LayerNorm((640,), eps=1e-05, elementwise_affine=True)
                (q_proj): Linear(in_features=640, out_features=640, bias=True)
                (k_proj): Linear(in_features=640, out_features=640, bias=True)
                (v_proj): Linear(in_features=640, out_features=640, bias=True)
                (o_proj): Linear(in_features=640, out_features=640, bias=False)
              )
            )
          )
        )
        (norm): Gemma3RMSNorm((640,), eps=1e-06)
        (rotary_emb): Gemma3RotaryEmbedding()
        (rotary_emb_local): Gemma3RotaryEmbedding()
      )
      (lm_head): Linear(in_features=640, out_features=262144, bias=False)
    )
  )
  (img_attn_pool): AttentionPooling(
    (cross_attn): CrossAttention(
      (norm): LayerNorm((640,), eps=1e-05, elementwise_affine=True)
      (context_norm): LayerNorm((768,), eps=1e-05, elementwise_affine=True)
      (q_proj): Linear(in_features=640, out_features=640, bias=True)
      (k_proj): Linear(in_features=768, out_features=640, bias=True)
      (v_proj): Linear(in_features=768, out_features=640, bias=True)
      (o_proj): Linear(in_features=640, out_features=640, bias=False)
    )
    (ffn_norm): LayerNorm((640,), eps=1e-05, elementwise_affine=True)
    (ffn_layer): MLP(
      (gate_proj): Linear(in_features=640, out_features=2560, bias=False)
      (up_proj): Linear(in_features=640, out_features=2560, bias=False)
      (down_proj): Linear(in_features=2560, out_features=640, bias=False)
      (act_fn): SiLUActivation()
    )
    (post_norm): LayerNorm((640,), eps=1e-05, elementwise_affine=True)
  )
  (img_to_latents): EmbedToLatents(
    (to_latents): Linear(in_features=640, out_features=640, bias=False)
  )
  (text_to_latents): EmbedToLatents(
    (to_latents): Linear(in_features=640, out_features=640, bias=False)
  )
  (ce): CrossEntropyLoss()
)
[21:35:05.240503] base lr: 1.00e-03
[21:35:05.240944] actual lr: 5.00e-04
[21:35:05.241316] accumulate grad iterations: 1
[21:35:05.241672] effective batch size: 128
[21:35:05.242034] lr: 5.000e-04
[21:35:05.242385] use distributed!!
[21:35:05.280180] AdamW (
Parameter Group 0
    amsgrad: False
    betas: [0.9, 0.999]
…
